profile/wpp/Default/optimization_guide_prediction_model_downloads/585f0e58-a3b7-47f3-b59b-7e73507ca9a2/model.tflite (tflite, 410364 bytes, 166 tensors)

context_transformer_0/bottleneck_input/norm/add f4 [32]
0	0x3cdf0fcf	0.027229218
1	0xbcc1a0ee	-0.023636308
2	0xbc1728e5	-0.009226059
3	0x3d78b0a5	0.060715336
4	0x3d6fa189	0.05850366
5	0xbdad2902	-0.08455087
6	0xbc889b9c	-0.016675763
7	0xbd9a49c0	-0.07533598
8	0xbd1d79a4	-0.038446084
9	0xbc455c1d	-0.012045887
10	0xbdd2870d	-0.10279665
11	0x3e74748a	0.23872581
12	0x3c93ede6	0.018057775
13	0xbc71dc2c	-0.014761966
14	0x3d666a0c	0.056253478
15	0x3d5e47f6	0.054267846
16	0xbc026bf1	-0.007960306
17	0xbd3c83f5	-0.04602428
18	0x3d9cf9c6	0.07664828
19	0x3db6059e	0.0888779
20	0x3d9c0adc	0.07619259
21	0x3d410ee2	0.047133334
22	0x3e11c4cc	0.14235228
23	0xbcbf72f4	-0.023370244
24	0x3cb6db66	0.022321414
25	0x3c4fd222	0.012684377
26	0xbd433e7d	-0.047667015
27	0xbd6dc836	-0.058052264
28	0xbceb67ea	-0.028736074
29	0x3d329019	0.043594453
30	0xbd7e3caa	-0.062069573
31	0xbe11b12e	-0.14227745

context_transformer_1/bottleneck_input/norm/add f4 [32]
0	0x3df25391	0.11832345
1	0xbdb6597e	-0.08903788
2	0x3e01c581	0.12672998
3	0xbe0b7a77	-0.13620935
4	0xbde1c84e	-0.11024533
5	0x3e4d1adc	0.20029777
6	0x3ef6c738	0.48198867
7	0xbd2f3708	-0.04277709
8	0x3d865f57	0.065611534
9	0xbeceb951	-0.4037576
10	0x3c6aa300	0.014321089
11	0x3d69d07c	0.05708359
12	0x3d9386e5	0.072034635
13	0xbdea9514	-0.11454216
14	0xbdbdc202	-0.0926552
15	0xbd0b1932	-0.033959575
16	0x3c8f93ac	0.01752647
17	0xbdd6c953	-0.10487618
18	0xbe8dcf72	-0.2769733
19	0xbda63dac	-0.08117232
20	0xbdad576d	-0.08463941
21	0xbd8904fc	-0.06690404
22	0x3dae75f0	0.085185885
23	0xbda86b74	-0.0822362
24	0xbe328da7	-0.17436849
25	0x3dd4484c	0.10365352
26	0xbd18d2e1	-0.037310485
27	0x3e212c42	0.1573954
28	0x3cf853f8	0.030313477
29	0x3e6c567e	0.23079869
30	0x3da93566	0.08262138
31	0x3c9fdc30	0.019514173

mention_transformer_0/bottleneck_input/norm/add f4 [32]
0	0xbda00529	-0.07813484
1	0xbe40b072	-0.18817309
2	0x3d208de2	0.03919781
3	0xbe2099b0	-0.15683627
4	0x3da32530	0.07966077
5	0x3d6434ec	0.055714533
6	0x3c5f258b	0.013619791
7	0xbc9543f3	-0.018220877
8	0xbe19d8ad	-0.15024062
9	0x3df47e04	0.11938098
10	0x3e67cb62	0.22636178
11	0xbaa11201	-0.0012288691
12	0xbc4b0ef6	-0.012393704
13	0xbcf99f34	-0.030471422
14	0x3d181266	0.03712692
15	0xbe29814c	-0.16553229
16	0x3d9ab262	0.07553555
17	0xbe4c0504	-0.19923788
18	0xbd1c3085	-0.03813221
19	0xbe03ad33	-0.12859039
20	0xbd70f2d3	-0.058825325
21	0x3e109aa4	0.1412149
22	0xbca1be70	-0.019744128
23	0xbe22599f	-0.158545
24	0x3c2986fe	0.010347126
25	0x3dcf0336	0.10108034
26	0xbe0f4f2e	-0.13995048
27	0xbe462592	-0.1935027
28	0x3df29d3c	0.11846396
29	0x3e43279e	0.19058082
30	0x3d2982ea	0.041384615
31	0xbc47be84	-0.012191419

mention_transformer_1/bottleneck_input/norm/add f4 [32]
0	0x3d990950	0.07472479
1	0x3e59cb63	0.21268992
2	0x3dd49a24	0.103809625
3	0x3eaa3024	0.33239853
4	0xbe82d2d6	-0.2555148
5	0x3e6ee2be	0.23328683
6	0x3ddaa4f6	0.10675995
7	0xbe5d4764	-0.21609265
8	0xbd9fc40b	-0.07801064
9	0x3e43f97a	0.19138137
10	0xbe8d9b8f	-0.27657744
11	0xbecbe9b7	-0.39826748
12	0xbdeb9e07	-0.11504751
13	0xbd41fb5e	-0.047358863
14	0x3ddd222e	0.10797535
15	0xbdc33450	-0.09531462
16	0xbdc9c876	-0.09852688
17	0x3d85884c	0.06520137
18	0x3eb78418	0.35842967
19	0xbe34ff9a	-0.1767563
20	0xbbb536a0	-0.0055301934
21	0xbdfa1a6d	-0.122120716
22	0xbd47b2bc	-0.04875444
23	0xbe5db066	-0.21649322
24	0xbe0f1cf9	-0.13975896
25	0xba3027e0	-0.0006719809
26	0x3df8623b	0.12128111
27	0xbc91fdb0	-0.017821163
28	0xbe46576e	-0.1936929
29	0x3d1b013c	0.037842974
30	0x3c546954	0.012964565
31	0x3e947780	0.2899742

context_transformer_0/attention/value/add;context_transformer_0/attention/value/einsum/Einsum;context_transformer_0/attention/value/add/ReadVariableOp/resource f4 [32]
0	0x3ae60d8e	0.0017551647
1	0xbbb4576a	-0.0055035846
2	0x3d088f60	0.033339858
3	0xbc52e3ab	-0.012871663
4	0xbd164ae4	-0.036692515
5	0x3c82bcd9	0.01595919
6	0xbcbb31f2	-0.022850964
7	0xbb7ca75c	-0.0038551902
8	0xbe48f9ba	-0.19626513
9	0x3e99677e	0.2996177
10	0x3d8d311c	0.068941325
11	0xbdecee3b	-0.11568876
12	0x3c9fe67e	0.019519087
13	0xbe8f8134	-0.28028262
14	0x3dcf01ae	0.10107742
15	0x3b127a48	0.0022350717
16	0x3d166540	0.036717653
17	0xbd296a63	-0.041361224
18	0xbccd395d	-0.025051767
19	0x3d321e6e	0.04348605
20	0xbd3b92e6	-0.04579439
21	0xbc4a60bf	-0.012352168
22	0x3c3ae838	0.011407904
23	0x3ca37204	0.019951828
24	0x3e3dc666	0.18532714
25	0xbdb5b1db	-0.08871814
26	0xbdb99f91	-0.09063638
27	0xbd530fcc	-0.051528737
28	0xbe4a928a	-0.19782463
29	0x3e20e849	0.1571361
30	0xbe0f4b54	-0.13993579
31	0xbd798678	-0.060919255

context_transformer_0/bottleneck_input/norm/mul f4 [32, 32]
0	0xbe28faa9	-0.1650187
1	0x3e570294	0.20997077
2	0x3e3626cb	0.17788236
3	0xbecff606	-0.40617388
4	0xbca0952b	-0.019602379
5	0xbe278426	-0.16359004
6	0xbe2b002a	-0.16699281
7	0x3e820522	0.2539454
8	0x3d9c9a77	0.07646649
9	0xbd33a9a7	-0.043862965
10	0x3ec939d1	0.39301923
11	0xbd35f572	-0.044423528
12	0xbc880111	-0.016602071
13	0x3e179e9d	0.148066
14	0x3d2d41c7	0.04229906
15	0xbec76c0b	-0.38949618
16	0x3deb7d8c	0.114985555
17	0x3eef5ff9	0.4675291
18	0xbe938279	-0.2881048
19	0xbe3c59e8	-0.18393672
20	0x3d1494a9	0.036274586
21	0x3ee55dc9	0.44798115
22	0x3e8046f6	0.2505414
23	0xbf4748f9	-0.7784572
24	0x3f270f12	0.6525737
25	0x3e1b10c6	0.15143117
26	0xbf0b225c	-0.54349303
27	0xbd6a0a7d	-0.05713891
28	0x3dcf58fa	0.10124393
29	0x3d05fa73	0.03270955
30	0x3d64a51c	0.055821523
31	0x3dfc36e0	0.12315154
32	0x3e7c4345	0.24635036
33	0xbdf2d2cd	-0.11856613
34	0xbdae0042	-0.08496143
35	0x3d8d9153	0.06912484
36	0xbead0b72	-0.33797795
37	0xbe220cdd	-0.1582522
38	0xbe1e2901	-0.15445329
39	0xbd7f423b	-0.06231902
40	0xbecc3cdc	-0.39890182
41	0x3e124abe	0.14286324
42	0x3e94a27d	0.2903022
43	0xbe53ffe2	-0.2070308
44	0xbd23dbc5	-0.04000451
45	0x3e108b85	0.14115722
46	0x3e52d21b	0.20587961
47	0xbe5b1cf6	-0.21397766
48	0xbe40fae4	-0.18845707
49	0xbd7d83a7	-0.06189313
50	0x3e8c4963	0.2739974
51	0xbdb1c031	-0.08679236
52	0xbe0bd120	-0.13653994
53	0x3d841f14	0.0645124
54	0xbdd3c423	-0.103401445
55	0x3ec8180d	0.3908085
56	0x3e857d5a	0.26072198
57	0x3d9e5b1e	0.07732223
58	0xbeb979ba	-0.36225682
59	0x3e425ca7	0.18980657
60	0xbe610b4d	-0.21976967
61	0xbda7f4de	-0.082010016
62	0xbd9ca4e1	-0.07648636
63	0xbe1a1da8	-0.15050375
64	0x3d281361	0.041034106
65	0x3dcc7c7c	0.09984681
66	0xbcf02f4d	-0.02931943
67	0xbe21bc34	-0.1579445
68	0x3e211ff6	0.15734848
69	0xbe44bc23	-0.19212393
70	0xbe754fa0	-0.23956156
71	0x3ecb0da0	0.39658833
72	0x3d298c96	0.04139384
73	0x3dd80222	0.10547282
74	0x3dd81b60	0.10552096
75	0x3dcb1c42	0.09917499
76	0x3d8ac04f	0.06774961
77	0xbdae0ea1	-0.08498884
78	0xbb8a7dbf	-0.004226416
79	0xbe43f345	-0.19135769
80	0x3ddb5f4c	0.10711536
81	0xbd7fdb70	-0.06246513
82	0xbea5103f	-0.32238957
83	0xbeba91dc	-0.36439407
84	0xbde4c0ee	-0.11169611
85	0xbda9a9ea	-0.08284362
86	0x3eb96f9f	0.36217973
87	0x3e308381	0.17237665
88	0xbdba98da	-0.09111185
89	0xbdb2aaed	-0.08724008
90	0x3d543670	0.05180973
91	0x3e1429cd	0.1446907
92	0xbe4592c2	-0.19294265
93	0x3f08b429	0.533999
94	0x3e9174f7	0.2840955
95	0x3df5ef08	0.12008482
96	0x3da133a8	0.07871181
97	0xbe8f042a	-0.27932864
98	0x3e26c4f2	0.16286066
99	0xbe4be7ad	-0.19912596
100	0xbdfccb79	-0.12343497
101	0xbdd42f8e	-0.10360633
102	0x3dc0f6c5	0.094220676
103	0x3d7c7ef3	0.061644506
104	0xbd983e1a	-0.0743372
105	0xbea3e17e	-0.32007974
106	0x3b4d2e35	0.003130806
107	0xbd1d426d	-0.038393427
108	0x3d5100ab	0.051026028
109	0xbb04a346	-0.002023892
110	0x3dda39d0	0.10655558
111	0xbea83b32	-0.32857662
112	0xbda58417	-0.08081835
113	0xbccabf01	-0.02474928
114	0x3e4dfbcb	0.20115583
115	0xbe562e03	-0.2091599
116	0xbdd50704	-0.10401729
117	0xbda09476	-0.07840817
118	0x3e678d54	0.22612506
119	0x3e5e881b	0.21731608
120	0x3e5c9c1c	0.21543926
121	0xbe0b84a7	-0.13624822
122	0xbdee48ad	-0.116349556
123	0xbd079f66	-0.033111
124	0xbe6c004a	-0.23046985
125	0x3d9aa8cf	0.07551729
126	0x3e30bcaa	0.1725947
127	0xba6cb397	-0.00090294465
128	0xbe1e1f27	-0.15441571
129	0x3e065528	0.13118422
130	0xbd6f9f5b	-0.058501583
131	0xbe0dfb3b	-0.13865368
132	0x3df3ad1f	0.118982546
133	0xbe7cdeff	-0.24694441
134	0x3e13b4d1	0.14424445
135	0x3dceab18	0.10091227
136	0x3d60ebb8	0.0549123
137	0xbd5405c1	-0.0517633
138	0xbd82643f	-0.06366777
139	0x3ea14bfe	0.3150329
140	0x3e062b43	0.1310244
141	0x3c1ea280	0.009682298
142	0x3da9f77f	0.08299159
143	0xbd7e395f	-0.062066432
144	0x3e79b4fd	0.24385448
145	0x3dc6d369	0.09708292
146	0x3e3b5568	0.18294299
147	0x3e501062	0.2031875
148	0xbe0c5f4e	-0.13708231
149	0xbdbd78d2	-0.0925156
150	0xbe514fd1	-0.20440604
151	0xbeb0e5c2	-0.3455029
152	0x3d0996ed	0.0335912
153	0x3e4ae5e3	0.19814257
154	0x3e18f71f	0.14938019
155	0x3dc5c64e	0.09656964
156	0x3e84ac32	0.25912625
157	0x3ce7a9fe	0.0282793
158	0xbe5a4381	-0.21314813
159	0x3e6169be	0.22012994
160	0xbe5e5363	-0.21711497
161	0x3e2ebff6	0.17065415
162	0x3eb57cc6	0.35446757
163	0xbe5f5329	-0.21809067
164	0xbd13a390	-0.036044657
165	0x3db05f8f	0.08611976
166	0x3dff9835	0.12480203
167	0xbe733392	-0.23750141
168	0x3d62c4ef	0.05536359
169	0xbe2bef7c	-0.16790575
170	0xbdf89b6f	-0.121390216
171	0xbe2468e4	-0.16055638
172	0x3da2c4a4	0.079476625
173	0xbe0f16a5	-0.13973482
174	0xbe8c7146	-0.2743017
175	0x3d7692bf	0.06019854
176	0x3d90aae8	0.07063848
177	0xbe02f77d	-0.12789722
178	0x3d4ca5ac	0.049962685
179	0x3db82175	0.089907564
180	0x3b988fc4	0.00465581
181	0xbe0a534e	-0.1350834
182	0x3e70e70e	0.2352564
183	0xbe9981bd	-0.29981795
184	0x3d62cec3	0.055372965
185	0x3de388f2	0.111101046
186	0x3deca2d3	0.11554494
187	0xbe63b3be	-0.22236535
188	0x3d991ba3	0.074759744
189	0x3e30d560	0.17268896
190	0x3dc83b79	0.097769685
191	0xbd0a0dee	-0.03370469
192	0x3dc12819	0.09431476
193	0xbeaccbe4	-0.33749306
194	0x3ee4e0da	0.44702798
195	0x3ccd0422	0.025026385
196	0xbe3b8a4c	-0.18314475
197	0x3f03bf11	0.5146342
198	0x3e3a6600	0.18202972
199	0xbe7326af	-0.23745225
200	0x3e207d73	0.15672855
201	0x3eceaf97	0.4036834
202	0x3d62d8bd	0.05538248
203	0xbe3eee1e	-0.18645522
204	0xbdf85f78	-0.12127584
205	0x3d65673a	0.056006648
206	0xbe1b69ac	-0.1517703
207	0x3d9a4e0a	0.07534416
208	0x3e12280d	0.1427309
209	0xbe9183e4	-0.28420937
210	0xbd75ba8e	-0.059992366
211	0x3e743cbf	0.23851298
212	0xbb1c4560	-0.0023845062
213	0x3d68dfc2	0.056854017
214	0x3e83ca42	0.25740248
215	0xbe56b837	-0.2096871
216	0x3eecdce2	0.4626227
217	0x3de5c3a6	0.112189576
218	0x3e8e9699	0.27849272
219	0xbdfd7fad	-0.12377868
220	0x3e13cb26	0.14432964
221	0xbd53fc43	-0.051754247
222	0xbe2ad412	-0.16682461
223	0x3d10c6e8	0.03534594
224	0xbdca82df	-0.09888243
225	0x3e5082c7	0.20362388
226	0x3ec05332	0.37563473
227	0xbe9d66ae	-0.307424
228	0xbdc83215	-0.097751774
229	0x3e907c3b	0.2821978
230	0x3e6b45bf	0.22975825
231	0xbd81e92c	-0.06343302
232	0xbd24e003	-0.040252697
233	0x3e9d4a16	0.30720586
234	0xbd08c6b8	-0.033392638
235	0xbe8d4061	-0.2758818
236	0x3db7591f	0.089525454
237	0x3d604eb5	0.05476256
238	0xbe360ca8	-0.17778265
239	0xbe024c69	-0.1272446
240	0x3e24a77a	0.16079512
241	0xbdde7368	-0.10861856
242	0x3cd83b1c	0.026395373
243	0x3efa28de	0.48859304
244	0x3dd6856b	0.10474666
245	0x3eb152d6	0.3463351
246	0x3db0d1b0	0.08633745
247	0xbeeb2ee4	-0.45934212
248	0xbd97751b	-0.07395383
249	0xbe3c8d2c	-0.18413228
250	0x3e4d3885	0.20041092
251	0xbe4d39c2	-0.20041564
252	0x3eb479c8	0.35249162
253	0xbdf72516	-0.120676205
254	0xbebb767c	-0.36613834
255	0xbd83805f	-0.06420969

context_transformer_0/kq_shared_bottleneck/norm/mul;context_transformer_0/kq_shared_bottleneck/norm/add;context_transformer_0/attention/key/einsum/Einsum;context_transformer_0/attention/key/add;context_transformer_0/attention/value/einsum/Einsum;context_transformer_0/attention/key/add/ReadVariableOp/resource f4 [32]
0	0x3f0f6bba	0.5602375
1	0x3f1f2f4a	0.6218153
2	0x3f28d585	0.65950805
3	0xbfee7284	-1.8628697
4	0x3f1fcb9e	0.6242007
5	0x3e2d7b9e	0.16941687
6	0xbf94a6cb	-1.1613401
7	0xbec75308	-0.38930535
8	0xc0e7a347	-7.2386813
9	0xc0dcb971	-6.897637
10	0xbff28521	-1.8946878
11	0xc0c90bf9	-6.2827115
12	0xc0bc4e03	-5.884523
13	0xc0bf8b1f	-5.9857326
14	0xc059b854	-3.4018755
15	0x40c48e30	6.142357
16	0xbf3ac521	-0.72957045
17	0x3fb0a030	1.3798885
18	0xbf0f9d4f	-0.5609941
19	0x3f6f242c	0.9341457
20	0xbf8476eb	-1.0348791
21	0x3f2d8c54	0.6779225
22	0xbf838f72	-1.0278151
23	0xbfbd5f95	-1.4794794
24	0x3fc67a03	1.5505985
25	0x3fa25fa2	1.2685435
26	0x3f591730	0.84801006
27	0x3f141202	0.5783998
28	0x3f90c498	1.1309996
29	0xbf33d3f9	-0.7024532
30	0x3ed23212	0.41053826
31	0xbf96dad3	-1.178553

context_transformer_0/kq_shared_bottleneck/norm/mul;context_transformer_0/kq_shared_bottleneck/norm/add;context_transformer_0/attention/key/einsum/Einsum;context_transformer_0/attention/key/add;context_transformer_0/attention/value/einsum/Einsum;context_transformer_0/attention/key/add/ReadVariableOp/resource1 f4 [32, 32]
0	0x3e177234	0.14789659
1	0xbe191aaa	-0.14951578
2	0x3e9b8341	0.30373576
3	0x3d86eb07	0.06587797
4	0x3e20e275	0.15711387
5	0xbd8ed054	-0.06973329
6	0x3d830d0b	0.06398972
7	0xbe145a1e	-0.14487502
8	0xbc412b87	-0.011790163
9	0xbc9933db	-0.018701484
10	0xbe160d6d	-0.14653559
11	0xbde6ecc1	-0.11275626
12	0xbdaee175	-0.08539096
13	0x3e833b7f	0.2563133
14	0xbe08fd5d	-0.133779
15	0x3e708183	0.23486905
16	0x3e13ff2b	0.14452808
17	0xbe9e1864	-0.30877984
18	0xbda95be0	-0.08269477
19	0x3bfc3713	0.007696995
20	0xbdc2dd0e	-0.09514819
21	0xbe55b9c4	-0.20871645
22	0xbc9fa819	-0.019489335
23	0x3c8b3834	0.016994573
24	0x3e02a0f9	0.12756719
25	0x3cb9218e	0.022599008
26	0xbd07f3e7	-0.033191588
27	0xbb93242c	-0.004490396
28	0xbe772a8e	-0.24137327
29	0xbdca9e14	-0.09893432
30	0x3f03582e	0.51306427
31	0x3e0cb467	0.13740693
32	0xbda33f14	-0.079710156
33	0xbdd181cb	-0.10229834
34	0xbe6a8f9f	-0.2290635
35	0xbe12b638	-0.14327323
36	0xbe70bc62	-0.23509362
37	0xbddf0302	-0.108892456
38	0xbba9ce17	-0.0051820385
39	0xbc705ce5	-0.014670585
40	0x3d4a889b	0.049446683
41	0x3d8e3bab	0.069449745
42	0xbcf35270	-0.029702395
43	0xbecc6eeb	-0.39928374
44	0x3e622df5	0.22087844
45	0xbd8f0f71	-0.06985367
46	0xbd216a10	-0.03940779
47	0xbbd05c10	-0.006358631
48	0xbdc269ed	-0.0949286
49	0xbce59a4c	-0.028027676
50	0x3cc44996	0.02396087
51	0xbcbf0317	-0.023316903
52	0x3e65987f	0.22421454
53	0xbe0f0b5c	-0.13969177
54	0xbd97b6ef	-0.07407939
55	0x3d51233f	0.051059004
56	0x3da21fa7	0.079161935
57	0x3ea035b2	0.31290966
58	0xbd100e42	-0.035169847
59	0x3d4104de	0.047123782
60	0x3d0aa580	0.03384924
61	0xbddc5ece	-0.1076027
62	0x3f8ba0f1	1.090849
63	0x3dff681f	0.124710314
64	0x3e8471a4	0.2586795
65	0x3e04fef2	0.12987879
66	0x3e4cbe1c	0.19994396
67	0xbe542233	-0.20716171
68	0x3e380304	0.179699
69	0x3d249fe0	0.04019153
70	0xbd1f8ada	-0.03895078
71	0x3db5904b	0.08865412
72	0x3dd40c66	0.10353927
73	0x3e3ba699	0.1832527
74	0x3e3567c5	0.17715366
75	0xbe1fb764	-0.15597302
76	0x3e842c53	0.25815067
77	0xbd7d5338	-0.06184694
78	0x3e0a5f57	0.13512932
79	0xbe1120e1	-0.14172699
80	0xbd12661f	-0.03574192
81	0x3e3fe9b6	0.18741497
82	0xbd30f95b	-0.043206554
83	0x3c7cdac3	0.015433016
84	0xbd0f6e59	-0.035017345
85	0x3e5b452f	0.2141311
86	0xbdaa4dd0	-0.08315623
87	0x3dbdc388	0.0926581
88	0x3d839420	0.06424737
89	0x3dc52e79	0.096280046
90	0xbd063c5b	-0.032772403
91	0x3e351c5e	0.17686602
92	0xbe84586a	-0.25848705
93	0x3d884830	0.06654394
94	0x3f3317f4	0.69958425
95	0xbde9556d	-0.11393247
96	0xbe654c7f	-0.22392462
97	0x3d8c80c3	0.06860497
98	0xbd0c635c	-0.034274444
99	0x3e7b4ec8	0.24541771
100	0xbdc3b1f5	-0.09555427
101	0xbdfe294d	-0.12410221
102	0x3e41288f	0.18863128
103	0x3e2b5b7c	0.16734117
104	0xbe256873	-0.16153125
105	0xbdf21e20	-0.11822152
106	0xbdaef94e	-0.08543645
107	0x3ec449f2	0.38337666
108	0xbe73109c	-0.23736805
109	0x3c8296f6	0.015941124
110	0xbe01854d	-0.12648506
111	0xbc25447e	-0.010087131
112	0xbd8e90eb	-0.06961235
113	0xbd9cdc80	-0.076592445
114	0xbdcc9bf5	-0.09990684
115	0x3e1f4ca6	0.15556583
116	0xbe3fefca	-0.18743816
117	0xbef3e6d0	-0.47637033
118	0xbd41813f	-0.0472424
119	0xbdd3f92e	-0.10350262
120	0x3e30e7f2	0.1727598
121	0xbe855ba7	-0.26046488
122	0xbdebbf27	-0.11511069
123	0xbe0f5f0d	-0.14001103
124	0xbd9ca900	-0.07649422
125	0x3e729053	0.23687868
126	0xbf61bc76	-0.88178194
127	0x3e33faf0	0.17576194
128	0x3e16b8f7	0.14718996
129	0x3e3babf0	0.18327308
130	0x3ca8dad3	0.020612156
131	0xbe9fc6af	-0.3120627
132	0x3dde940d	0.10868082
133	0xbd59385c	-0.053032264
134	0x3bb8bbc8	0.0056376196
135	0xbc3e7402	-0.011624338
136	0x3e417176	0.18890938
137	0xbdc16d1b	-0.09444638
138	0x3e3361df	0.17517804
139	0xbe1baeec	-0.15203446
140	0x3eb83c27	0.35983393
141	0xbe1c3d4e	-0.15257761
142	0x3defffd0	0.11718714
143	0xbd1e2ecb	-0.038618844
144	0xbe48c941	-0.19608022
145	0x3e4782be	0.19483468
146	0xbe8e79e3	-0.27827367
147	0xbcae497a	-0.02127527
148	0x3e34e07f	0.17663763
149	0x3e96c2ff	0.29445645
150	0xbdcef23a	-0.10104795
151	0xbcfb5a01	-0.030682566
152	0xbd8e2668	-0.06940919
153	0x3eadcde1	0.33946136
154	0x3d2a6aae	0.041605644
155	0xbd9435f3	-0.072368525
156	0x3c633969	0.013868668
157	0xbd5b5563	-0.053548228
158	0x3f0e2b7e	0.55535114
159	0xbd9ac9b0	-0.07558
160	0x3e3e19e4	0.18564564
161	0x3da46153	0.080263756
162	0x3e616be5	0.22013815
163	0x3de2f813	0.11082473
164	0x3ea70b71	0.32625917
165	0x3de25e28	0.11053115
166	0x3ca2c60e	0.01986983
167	0xbd298e63	-0.041395556
168	0x3d8158c0	0.06315756
169	0x3e0b70ce	0.1361725
170	0x3ce4303f	0.027855037
171	0xbc975714	-0.01847414
172	0xbdffdcc0	-0.124932766
173	0x3cb64485	0.02224947
174	0xbe357e3f	-0.1772394
175	0x3db7b540	0.089701176
176	0x3e8a3c84	0.26999295
177	0xbd4a3268	-0.049364477
178	0x3e6b8a34	0.23001939
179	0xbceae8b9	-0.028675424
180	0xbd8c26fe	-0.06843375
181	0xbe0f13f9	-0.13972463
182	0xbc768eb0	-0.015048668
183	0x3e19e853	0.15030031
184	0x3d5daf2e	0.054122142
185	0x3df0503b	0.11734053
186	0xbd6183cf	-0.055057343
187	0x3e77dc12	0.24205044
188	0xbe2c0088	-0.16797078
189	0x3d814b77	0.06313222
190	0x3ef53b9a	0.47897035
191	0x3e6533ab	0.22382991
192	0xbed5b012	-0.41735893
193	0xb9de8be4	-0.00042447366
194	0xbea52912	-0.32257897
195	0x3e914dd8	0.28379703
196	0xbe7ad697	-0.24495922
197	0xbcc5d483	-0.024149185
198	0x3e015118	0.12628591
199	0x3dbac92b	0.09120401
200	0xbe2d1114	-0.16901046
201	0xbd7dfcd7	-0.062008705
202	0xbe15deab	-0.14635722
203	0x3e7ec06b	0.24878089
204	0xbeae85d2	-0.34086472
205	0x3d28c763	0.041205775
206	0xbdbafce9	-0.0913027
207	0x3df32c1f	0.1187365
208	0x3da34c96	0.07973592
209	0xbe3366f6	-0.17519745
210	0x3e18da08	0.14926922
211	0xba926db6	-0.0011171612
212	0xbda27a8f	-0.079335324
213	0xbef111df	-0.47083947
214	0x3d2b1919	0.041771982
215	0xbd03a925	-0.03214373
216	0x3d8a7ab7	0.06761687
217	0xbe6eebf2	-0.23332193
218	0xbd538f14	-0.05165012
219	0xbd8112ca	-0.06302412
220	0x3dc2acc3	0.09505608
221	0x3dc7bccf	0.09752809
222	0xbf25aba1	-0.6471501
223	0x3e29a8e9	0.1656834
224	0xbd0fbf5a	-0.035094596
225	0xba5cfbb2	-0.00084298395
226	0x3df4ea09	0.11958701
227	0x3d5f41a0	0.054505944
228	0xbd29a591	-0.041417662
229	0x3e0423e5	0.12904318
230	0xbe153d6f	-0.14574216
231	0x3d9edc45	0.07756857
232	0xbd30d8dd	-0.043175567
233	0x3e2816cd	0.16414948
234	0x3e0afdc9	0.13573374
235	0x3e2ea760	0.17056036
236	0xbe3f1a39	-0.18662347
237	0xbd884e8a	-0.06655605
238	0x3e39084a	0.18069568
239	0xbe1209e0	-0.1426158
240	0xbc73412d	-0.014847082
241	0x3e500e7b	0.20318024
242	0x3e14a8eb	0.14517562
243	0x3de129de	0.10994314
244	0xbe14fd33	-0.14549713
245	0x3ebd3730	0.36956167
246	0x3dda0e84	0.106473
247	0x3b4ec349	0.0031549504
248	0xbe240b35	-0.160199
249	0xbe50bdc4	-0.2038489
250	0xbd36fbde	-0.044673793
251	0x3d960796	0.07325666
252	0x3dc42fd5	0.09579436
253	0x3dd85adf	0.10564207
254	0xbf321af7	-0.69572395
255	0xbe3a233b	-0.18177502

context_transformer_0/kq_shared_bottleneck/norm/mul;context_transformer_0/kq_shared_bottleneck/norm/add;context_transformer_0/attention/query/einsum/Einsum;context_transformer_0/attention/query/add;context_transformer_0/attention/value/einsum/Einsum;context_transformer_0/attention/query/add/ReadVariableOp/resource;context_transformer_0/attention/Mul;context_transformer_0/attention/Mul/y f4 [32]
0	0x3d9f16de	0.077680334
1	0x3ea1214a	0.3147071
2	0xbdc4aa5b	-0.09602805
3	0x3d09cb40	0.0336411
4	0xbd8305bf	-0.0639758
5	0x3d0b1f42	0.033965357
6	0x3e329e76	0.1744326
7	0xbe5582fc	-0.20850748
8	0xbfa71784	-1.3054051
9	0xbfbaa9f0	-1.4583111
10	0x3fa495ba	1.2858193
11	0xbe4b38b6	-0.19845852
12	0xc07fb62a	-3.9954934
13	0xc05e85d3	-3.476918
14	0x3f1769a2	0.5914556
15	0x4037caed	2.8717606
16	0xbe943341	-0.28945354
17	0xbdcec13d	-0.10095451
18	0xbe8c0176	-0.27344865
19	0xbc0aa2bc	-0.00846165
20	0xbc82b2d8	-0.01595442
21	0x3e5a5688	0.21322072
22	0x3e0b0dce	0.13579485
23	0x3e0d9d79	0.13829602
24	0x3eb2f362	0.3495131
25	0xbea4a9e8	-0.32160878
26	0x3de2ebd5	0.11080138
27	0xbd41e463	-0.047336947
28	0x3e955e98	0.29173732
29	0xbdfe0cb1	-0.124047644
30	0xbd9139f1	-0.070911296
31	0x3e297eeb	0.16552322

context_transformer_0/kq_shared_bottleneck/norm/mul;context_transformer_0/kq_shared_bottleneck/norm/add;context_transformer_0/attention/query/einsum/Einsum;context_transformer_0/attention/query/add;context_transformer_0/attention/value/einsum/Einsum;context_transformer_0/attention/query/add/ReadVariableOp/resource;context_transformer_0/attention/Mul;context_transformer_0/attention/Mul/y1 f4 [32, 32]
0	0x3c965201	0.01834965
1	0x3d45be85	0.048277397
2	0x3da50456	0.08057468
3	0xbc5a8319	-0.01333692
4	0x3d80cbfb	0.06288906
5	0xbcf9a851	-0.030475767
6	0x3df07dea	0.11742766
7	0xbd02f60d	-0.031972934
8	0xbbac0b61	-0.00525038
9	0xbe2406e5	-0.16018255
10	0xbcb02374	-0.02150128
11	0x3e0155da	0.12630406
12	0xbe01650b	-0.12636201
13	0x3c623304	0.013806108
14	0x3c432d8e	0.011912717
15	0x3d93b5a7	0.07212382
16	0xbc92d0b9	-0.017921792
17	0xbc81251c	-0.015764765
18	0xbdc33a60	-0.095326185
19	0xbd431f4d	-0.047637273
20	0xbd962179	-0.07330603
21	0xbd045b4a	-0.032313623
22	0xbc07ca88	-0.008288033
23	0xbe0bba25	-0.13645227
24	0x3ba6161b	0.005068553
25	0xbdb996a7	-0.09061938
26	0x3d1350c4	0.035965696
27	0xbdade863	-0.0849159
28	0xbd38d768	-0.045127302
29	0xbbeecfb4	-0.0072879437
30	0xbdc8efba	-0.09811349
31	0xbc963b63	-0.018338865
32	0xbd85516d	-0.06509671
33	0xbd961505	-0.07328228
34	0xbdf561d0	-0.11981547
35	0xbcd04841	-0.025425078
36	0x3cd8fe9b	0.026488593
37	0x3c471c6a	0.0121527705
38	0x3d516abd	0.051127184
39	0xbb6af052	-0.0035848808
40	0xbc7340b8	-0.014846973
41	0x3cad17ad	0.021129454
42	0xbbc38285	-0.005966487
43	0xbdbd10e7	-0.092317395
44	0xbe51cf18	-0.20489156
45	0x3c07d1ec	0.008289795
46	0xbad723f3	-0.0016413912
47	0xb9dd8d29	-0.00042257577
48	0x3c859ba4	0.016309567
49	0x3b707ae5	0.0036694345
50	0x3d24c0d1	0.040222947
51	0x3bb7a7a6	0.005604702
52	0xbe3b2b1f	-0.18278168
53	0x3d126501	0.035740856
54	0x3c0acc71	0.008471594
55	0x3c9af3ad	0.018915022
56	0x3e5f766e	0.21822521
57	0xbe1d697c	-0.1537227
58	0x3bd9e757	0.0066498923
59	0x3d958414	0.073005825
60	0xbdc39ca6	-0.09551363
61	0xbd21b691	-0.03948075
62	0x3d9ba4ed	0.075998165
63	0x3cb28508	0.02179195
64	0xbd4d9af6	-0.05019661
65	0x3c8dba2f	0.017300693
66	0xbce38eba	-0.027778018
67	0x3ae64999	0.0017569541
68	0x3dbfaa37	0.09358638
69	0x3d5f9926	0.054589413
70	0x3da74e63	0.08169248
71	0x3d4503af	0.048099216
72	0xbd0f5003	-0.034988414
73	0x3d045f9a	0.032317735
74	0x3b455fec	0.0030116988
75	0xbc5a4d34	-0.013324071
76	0xbe133122	-0.14374211
77	0xbd0d18a9	-0.034447346
78	0xbca1afd2	-0.019737158
79	0x3c2ce148	0.010551758
80	0xbbb4d27e	-0.0055182567
81	0x3d0a4fd0	0.03376752
82	0x3d676228	0.056490093
83	0x3cad246f	0.021135537
84	0xbe24b6a8	-0.16085303
85	0xbc9f1a62	-0.01942176
86	0xbbe35a78	-0.006938275
87	0xbb8d93dc	-0.0043206047
88	0x3e08fb8f	0.13377212
89	0xbe0d873c	-0.13821119
90	0xbb2d8a0c	-0.0026479987
91	0x3db8bdc2	0.090205684
92	0xbe00e727	-0.12588178
93	0x3ca78aa4	0.020451851
94	0xbcddd67b	-0.027079811
95	0x3d31c386	0.043399356
96	0x3da51997	0.080615215
97	0x3c49f26a	0.012325862
98	0x3d4bfc36	0.049801074
99	0xbbddf6ef	-0.0067738215
100	0xbe11d9b8	-0.1424321
101	0xbd82f497	-0.06394308
102	0xbd6682a3	-0.05627693
103	0xbd66a8c2	-0.056313284
104	0x3d0dc8ac	0.034615204
105	0x3d02dad6	0.03194698
106	0x3d74926d	0.059709955
107	0x3deb8423	0.114998125
108	0x3e376cca	0.17912593
109	0xbd380c87	-0.044933822
110	0x3d386a50	0.045023263
111	0xbe54be34	-0.20775682
112	0xbde6d22e	-0.11270557
113	0x3d2fbf73	0.04290719
114	0xbe04b5c4	-0.12959963
115	0xbce193ae	-0.02753624
116	0x3e091dac	0.13390225
117	0x3c384734	0.011247445
118	0xbcca8fb7	-0.024726732
119	0xbcd8939a	-0.02643757
120	0xbd412653	-0.04715569
121	0x3dd5cecb	0.10439833
122	0xbc2aec6d	-0.010432345
123	0xbe1b1b5f	-0.1514716
124	0x3d8b4e2d	0.0680202
125	0x3ce1306e	0.027488913
126	0x3d099c49	0.03359631
127	0xbd6196f6	-0.05507561
128	0xbe85ce2c	-0.2613386
129	0x39ad08e8	0.00033003767
130	0xbe77ceeb	-0.24200027
131	0x3c69dfe0	0.014274567
132	0x3c959afb	0.018262377
133	0x3b08583e	0.002080455
134	0x3d91b952	0.07115425
135	0x3cd32599	0.025774764
136	0xbcad3526	-0.021143507
137	0xbbd1250f	-0.0063825916
138	0xbc2dce23	-0.010608229
139	0xbcd6889c	-0.026188187
140	0xbe1f4a2d	-0.1555564
141	0xbcf8b2d3	-0.030358708
142	0xbc8d5b5b	-0.017255476
143	0x3abdbbc1	0.0014475511
144	0x3cda5eb1	0.02665648
145	0x3cef98fb	0.029247751
146	0x3d9e29a0	0.07722783
147	0x3d2448ce	0.040108494
148	0xbd962eda	-0.07333155
149	0xbb9e171b	-0.0048245317
150	0x3bc9ebe5	0.006162154
151	0x3bf2b33b	0.00740662
152	0x3decb7fd	0.115585305
153	0xbd9c3cd8	-0.076287925
154	0x3b3c5002	0.0028734212
155	0x3da1f9f7	0.07909005
156	0x3c177eb3	0.009246516
157	0xbc036475	-0.008019556
158	0x3c66bf70	0.014083728
159	0x3d6f6202	0.058443077
160	0x3d4dc7d8	0.050239414
161	0x3da3ed31	0.08004225
162	0x3e119603	0.14217381
163	0xbc8d791f	-0.01726967
164	0x3e19eac4	0.15030962
165	0x3def8bef	0.11696612
166	0x3d5f1981	0.05446768
167	0x3b851594	0.00406141
168	0x3baceeaf	0.0052774767
169	0xbb57443d	-0.003284707
170	0x3d04e258	0.03244242
171	0x3da3bb73	0.079947375
172	0xbd9f6005	-0.07781986
173	0x3c91567c	0.017741434
174	0xbd02e01e	-0.031952016
175	0x3dd1196f	0.10209929
176	0x3d6ba4f2	0.05753035
177	0xbc7ffafd	-0.015623805
178	0x3d9438eb	0.07237419
179	0xbcb9aee4	-0.022666402
180	0xbdfb20bf	-0.12262105
181	0xbde4397f	-0.11143779
182	0x3d4f61c4	0.050630346
183	0xbcdd3454	-0.027002491
184	0x3c6c14bf	0.014409243
185	0xbd4eb28e	-0.05046325
186	0x3b27020c	0.0025483398
187	0x3dc473cc	0.09592399
188	0xbe0f335c	-0.13984436
189	0x3cd753f5	0.026285151
190	0xbd93c0b5	-0.0721449
191	0x3c8562e2	0.016282503
192	0x3e11ca5e	0.14237353
193	0x3b8d1b9a	0.004306269
194	0x3da7bedb	0.081907
195	0xbc908df5	-0.017645815
196	0xbe0336ed	-0.12813921
197	0xbcb4bf79	-0.022063958
198	0xbdea0b72	-0.11427964
199	0xbd5e4044	-0.054260507
200	0x3d60c463	0.05487479
201	0x3d89541a	0.06705494
202	0x3d447a39	0.047968123
203	0x3d2fb3cd	0.04289608
204	0x3e480ea6	0.19536838
205	0xbb5bf562	-0.0033563008
206	0x3cd068f4	0.02544067
207	0xbe06c62c	-0.13161534
208	0xbd44fe57	-0.04809412
209	0xbbc24d42	-0.00592962
210	0xbd93b37e	-0.0721197
211	0xbd2dc3bd	-0.042423
212	0x3e0fbd66	0.14037094
213	0x39801bb0	0.0002443469
214	0x3c6e7492	0.01455416
215	0x3ce4c528	0.027926043
216	0xbd7c1dcd	-0.061551858
217	0x3e063f8b	0.13110177
218	0x3aadc585	0.0013257718
219	0xbdb7407e	-0.08947848
220	0x3cfbe4bf	0.030748723
221	0x3c01e043	0.007927003
222	0x3d726013	0.059173655
223	0xbd1b2e6d	-0.037886072
224	0x3e1213d4	0.14265376
225	0xbd317318	-0.043322653
226	0x3dcd9612	0.10038389
227	0x3d1b334f	0.03789073
228	0x3c458252	0.012054997
229	0x3cb36209	0.021897333
230	0xbe0065cb	-0.12538831
231	0x3d418af4	0.047251657
232	0xbd0424e3	-0.03226174
233	0x3df0ea64	0.117634565
234	0xbcb5ff09	-0.022216337
235	0xbdfb1704	-0.12260249
236	0x3e1eec83	0.1551991
237	0x3cbbaf0f	0.022910623
238	0xb99050a0	-0.0002752589
239	0xbcb42e9b	-0.02199488
240	0x3d1bc6fb	0.03803156
241	0xbbb130dc	-0.005407436
242	0x3d86139f	0.06546711
243	0x3d2267bb	0.039649706
244	0x3db3baf6	0.08775894
245	0x3d8bfe36	0.06835596
246	0x3c00a59f	0.007851987
247	0x3db345d4	0.08753553
248	0xbd8eeed9	-0.0697915
249	0x3d7f83f7	0.06238171
250	0xbd3329c0	-0.043740988
251	0x3d605015	0.054763872
252	0x3c4c6d7c	0.012477275
253	0x3ccb2467	0.024797631
254	0x3c6567e5	0.014001821
255	0x3c1e11d5	0.009647806

context_transformer_0/ffn_layer_0/intermediate_dense/einsum/Einsum;context_transformer_0/ffn_layer_0/intermediate_dense/Relu;context_transformer_0/ffn_layer_0/intermediate_dense/add f4 [32]
0	0xbe25cc55	-0.16191228
1	0xbe275462	-0.16340783
2	0xbe4e733f	-0.2016115
3	0xbe5d98db	-0.21640341
4	0xbe15c738	-0.14626777
5	0xbe85b9f4	-0.26118433
6	0xbd355d99	-0.044278715
7	0xbe779ee9	-0.24181713
8	0xbdbb8f59	-0.09158201
9	0xbe7f8875	-0.24954398
10	0xbe163dde	-0.14672038
11	0xbf08b4be	-0.5340079
12	0x3b339d9f	0.0027407182
13	0xbe15e50d	-0.14638157
14	0xbe906f81	-0.2821007
15	0xbe739ec5	-0.23791035
16	0xbe5b0628	-0.21389067
17	0xbeab7d4f	-0.3349404
18	0xbe2b3458	-0.16719186
19	0xbe90a39b	-0.2824982
20	0xbec0905c	-0.37610137
21	0xbda74c76	-0.08168881
22	0xbdf896a0	-0.121381044
23	0xbe88fd84	-0.26755917
24	0xbe3aff4e	-0.18261454
25	0xbe9ac065	-0.3022491
26	0xbe9d7eb5	-0.30760732
27	0xbe281069	-0.1641251
28	0xbe0a1e64	-0.13488156
29	0xbdf265a3	-0.11835792
30	0xbdbcc031	-0.09216345
31	0xbe97e92b	-0.2967008

context_transformer_0/attention/norm/mul;context_transformer_0/attention/norm/add;context_transformer_0/ffn_layer_0/intermediate_dense/einsum/Einsum;context_transformer_0/ffn_layer_0/intermediate_dense/Relu;context_transformer_0/ffn_layer_0/intermediate_dense/add f4 [32, 32]
0	0xbd0b8743	-0.034064543
1	0x3c37e680	0.011224389
2	0xbe4bde83	-0.199091
3	0xbdaf0a76	-0.08546917
4	0xbea53fbd	-0.3227519
5	0xbddbd713	-0.107343815
6	0x3dac2035	0.084045805
7	0xbd4c1068	-0.049820334
8	0xbdd6c7d5	-0.10487334
9	0x3e00a1d2	0.1256173
10	0x3e388ddd	0.18022867
11	0xbd58e2cb	-0.05295066
12	0xbd008a84	-0.0313821
13	0xbd5acb3b	-0.053416472
14	0x3b2bc832	0.0026211855
15	0x3e31498a	0.17313209
16	0x3d2a9ddd	0.041654456
17	0xbdbf5f85	-0.09344391
18	0xbe365832	-0.17807081
19	0xbe5bb78c	-0.21456736
20	0xbe36f634	-0.17867357
21	0x3c515478	0.012776487
22	0xbe0c1834	-0.13681108
23	0xbe3104d8	-0.17287004
24	0xbc9beb6d	-0.019033158
25	0xbd769791	-0.06020314
26	0x3d995b85	0.07488159
27	0x3c2afe41	0.010436595
28	0xbdc1fd45	-0.094721355
29	0x3c4252dc	0.0118605755
30	0x3e020b77	0.12699686
31	0x3da3bf1b	0.07995435
32	0x3bc58482	0.006027759
33	0x3d8ca28e	0.06866942
34	0xbde6d593	-0.11271205
35	0xbdc617ae	-0.09672485
36	0xbeb3129c	-0.34975135
37	0xbd7b7cfb	-0.061398488
38	0x3dfd3b1f	0.12364792
39	0xbd159fa6	-0.036529206
40	0x3c6bee7d	0.014400122
41	0xbcf95db3	-0.030440187
42	0x3d949ae2	0.07256104
43	0xbe0a8715	-0.13528092
44	0xbd57f8bd	-0.05272745
45	0x3e9714f5	0.29508176
46	0x3d1a2f72	0.037642904
47	0x3e007e1b	0.12548105
48	0xbe98dae2	-0.29854494
49	0x3e79fa77	0.24411951
50	0xbd75bd6d	-0.059995104
51	0x3c8b7c67	0.017027093
52	0x3ddf1a75	0.10893718
53	0xbed3ab83	-0.4134179
54	0xbc421617	-0.011846087
55	0xbe16e42d	-0.1473548
56	0xbd125e17	-0.035734262
57	0xbef68f99	-0.4815643
58	0x3ea34272	0.3188663
59	0x3e26c6a9	0.1628672
60	0xbd84939a	-0.06473465
61	0xbe7d8dae	-0.24761078
62	0x3bd34b96	0.0064482195
63	0x3e0a457c	0.13503069
64	0xbe2ca3fb	-0.16859429
65	0x3cb79856	0.022411507
66	0x3e08a05d	0.13342424
67	0xbd0bac69	-0.03409997
68	0xbdbec5de	-0.09315084
69	0xbc8c55db	-0.017130783
70	0x3cf63cb9	0.030058252
71	0xbcbc336f	-0.022973744
72	0xbda8c9a2	-0.082415834
73	0x3d924bdb	0.071433745
74	0x3eb99626	0.36247367
75	0xbe5aad61	-0.21355201
76	0xbd08d622	-0.033407338
77	0x3db05b7a	0.08611198
78	0x3e447485	0.19185074
79	0x3cee11a2	0.029061142
80	0x3e8bcc04	0.2730409
81	0xbe13fadf	-0.14451168
82	0x3cfaef36	0.030631643
83	0x3e0e7f20	0.13915682
84	0xbdc3d165	-0.09561423
85	0xbcf0a5ad	-0.029375875
86	0xbb6a9ef8	-0.003580032
87	0x3ddec8af	0.10878121
88	0xbdfb9910	-0.12285054
89	0x3d9c0e47	0.07619911
90	0xbda142f1	-0.07874096
91	0x3d8e8516	0.06958978
92	0xbe2273b8	-0.15864456
93	0x3d04980c	0.032371566
94	0xbd2ed7e2	-0.04268635
95	0xbd0ec6b1	-0.034857456
96	0xbe001b17	-0.12510334
97	0xbe40fd1c	-0.18846554
98	0x3e47a1e0	0.19495344
99	0x3df6384f	0.12022459
100	0x3dcd5596	0.1002609
101	0x3e9e389c	0.30902565
102	0x3eccab42	0.3997441
103	0x3d5e73fb	0.054309826
104	0xbe092e37	-0.13396536
105	0x3e7f790e	0.24948522
106	0xbe830f35	-0.2559754
107	0xbdec2044	-0.11529592
108	0xbd9e55c2	-0.07731201
109	0xbd092584	-0.033483043
110	0xbd8e45a2	-0.06946875
111	0xbd12ee6f	-0.03587192
112	0xbe5b01f5	-0.21387465
113	0xbe7a93ea	-0.24470487
114	0x3e23511b	0.15948908
115	0x3e94a636	0.2903306
116	0xbd90bc4a	-0.07067163
117	0x3e6b5b8d	0.22984143
118	0xbce2abc4	-0.027669795
119	0x3ebb01d0	0.3652482
120	0x3d16fd01	0.036862377
121	0x3ed57a9b	0.41695103
122	0x3de06eed	0.109586574
123	0x3e1b56b5	0.15169795
124	0x3c727311	0.014797942
125	0x3ec2d4e1	0.3805304
126	0x3db4f382	0.08835508
127	0x3e0aed5d	0.1356711
128	0x3c0c13d2	0.008549647
129	0x3e68b9c4	0.22727114
130	0x3e4f3449	0.20234789
131	0x3df38573	0.11890688
132	0xbcb782ed	-0.022401297
133	0x3da4a819	0.080398746
134	0x3e59af56	0.21258292
135	0xbe794aa7	-0.24344884
136	0xbda07d33	-0.0783638
137	0xbd660afa	-0.05616281
138	0x3c049158	0.008091293
139	0xbde5e151	-0.11224616
140	0x3de1f0cf	0.11032259
141	0x3e0dc9c8	0.13846505
142	0xbe01d03a	-0.12677088
143	0xbe1f3fea	-0.15551725
144	0x3ecd0a63	0.40046987
145	0x3e63433d	0.22193618
146	0x3e79d2a0	0.24396753
147	0xbb438183	-0.0029831834
148	0xbdef4882	-0.11683752
149	0xbdaf4eec	-0.08559975
150	0xbb8f3a3c	-0.0043709558
151	0xbcfd44ca	-0.03091659
152	0x3e5a8f4c	0.21343726
153	0xbe58a3a2	-0.21156171
154	0x3e52fc1f	0.20603989
155	0x3e800742	0.25005537
156	0x3e76ad52	0.24089554
157	0x3e3741ed	0.17896242
158	0x3e1487bf	0.14504908
159	0xbdabf327	-0.08395987
160	0xbe1307d4	-0.14358455
161	0x3e9ac1de	0.30226034
162	0xbe89f141	-0.26941875
163	0x3df2b844	0.11851552
164	0x3e25d6fe	0.16195294
165	0xbbb468ff	-0.0055056806
166	0xbb4ea260	-0.0031529889
167	0xbe24a2b4	-0.16077691
168	0xbd7537a9	-0.059867535
169	0xbb49a588	-0.003076883
170	0x3ea29aa9	0.3175862
171	0xbe2610bb	-0.1621732
172	0xbd6c8f91	-0.057754103
173	0x3e32692a	0.1742293
174	0xbe0701d7	-0.13184296
175	0x3d9359ec	0.071948856
176	0xbedc77b5	-0.4306008
177	0xbdb674ff	-0.08909034
178	0xbe9ce361	-0.30642226
179	0xbe497699	-0.19674148
180	0xbdc37d6d	-0.095454074
181	0x3e540383	0.20704465
182	0xbe71e2c1	-0.23621656
183	0x3e05df17	0.13073383
184	0x3e4b8b7a	0.19877425
185	0xbd3176b7	-0.043326106
186	0xbd802dea	-0.062587574
187	0x3da0946d	0.0784081
188	0x3e715971	0.23569275
189	0x3a03c8ad	0.00050271564
190	0x3da53d1a	0.08068295
191	0x3eda5e59	0.42650107
192	0x3e6e7461	0.23286583
193	0xbe653a0e	-0.22385427
194	0xbca888b6	-0.020573001
195	0x3b808568	0.0039221533
196	0xbcaa1afb	-0.020764818
197	0xbc226d5c	-0.009913769
198	0x3dbe8c8f	0.09304153
199	0xbc5940b7	-0.013260058
200	0xbcfb9d77	-0.030714734
201	0xbd14eeaf	-0.03636044
202	0x3e070892	0.13186863
203	0xbd88058f	-0.06641685
204	0x3c474eba	0.012164766
205	0x3ce19cc6	0.027540576
206	0xb9f90b76	-0.0004750152
207	0x3da254a2	0.07926299
208	0xbd444516	-0.047917448
209	0xbdf94d55	-0.12172953
210	0xbdf763a0	-0.12079549
211	0xbe42e52c	-0.19032735
212	0xbbd6e8c2	-0.0065585086
213	0xbe226f3a	-0.15862742
214	0xbd946519	-0.07245845
215	0xbdd326dc	-0.10310146
216	0x3e1a6a9e	0.15079734
217	0x3cd1de26	0.025618624
218	0x3e646bf9	0.22306813
219	0xbdcb49c7	-0.09926181
220	0x3d903a53	0.070423745
221	0x3d1a6c27	0.0377008
222	0xbd8cb56e	-0.068705425
223	0xbd9b1c57	-0.07573765
224	0xbdcbb458	-0.09946507
225	0xbcfd09ba	-0.030888427
226	0x3def0cc8	0.1167236
227	0xbd8e33d8	-0.06943482
228	0xbe30aa97	-0.17252575
229	0x3e5635b6	0.20918927
230	0x3e41743b	0.18891995
231	0x3e1d40c6	0.1535674
232	0x3d4284f1	0.047490064
233	0xbe4fba3a	-0.20285884
234	0x3e1bf588	0.15230381
235	0xbe042519	-0.12904777
236	0xbdaf5170	-0.08560455
237	0xbe344cf8	-0.17607486
238	0xbcee1f5b	-0.029067686
239	0x3e2ffa34	0.17185289
240	0xbf0bd97c	-0.5462873
241	0xbe167e24	-0.14696556
242	0xbd35d2ba	-0.044390418
243	0xbe93c7bc	-0.28863323
244	0x3e0eed87	0.13957797
245	0xbd9bb109	-0.07602126
246	0x3d9f09c1	0.07765532
247	0x3e106756	0.1410192
248	0xbdbd75a8	-0.09250957
249	0x3e09e83b	0.13467495
250	0x3c0554b9	0.008137875
251	0xbe17663c	-0.14785093
252	0xbaeaa7cd	-0.0017902792
253	0x3e963fe6	0.29345626
254	0x3dad2a5d	0.08455346
255	0x3ea118bc	0.31464183

context_transformer_0/ffn_layer_1/intermediate_dense/einsum/Einsum;context_transformer_0/ffn_layer_1/intermediate_dense/Relu;context_transformer_0/ffn_layer_1/intermediate_dense/add f4 [32]
0	0xbe4d810d	-0.2006876
1	0x3d5d85a4	0.054082528
2	0xbe4bbea3	-0.19896941
3	0xbddb762a	-0.107158974
4	0xbda72017	-0.081604175
5	0xbeb25e4a	-0.34837562
6	0xbe5c04e3	-0.21486239
7	0xbe2d4c79	-0.16923703
8	0xbdf6072c	-0.12013087
9	0xbe8f5e6c	-0.28001726
10	0xbde7dceb	-0.11321434
11	0xbecb3389	-0.39687756
12	0xbd5968a9	-0.053078327
13	0xbe953949	-0.29145268
14	0xbe01ff24	-0.12694985
15	0x3cbec6b9	0.023288118
16	0xbe1d92ec	-0.15388077
17	0xbd2a929c	-0.041643724
18	0xbe2dbd74	-0.16966802
19	0xbe4b7ab1	-0.19871022
20	0xbe288822	-0.1645818
21	0x3d78bbda	0.060726024
22	0xbe1730a4	-0.14764649
23	0xbe589ff7	-0.21154772
24	0xbf0f5d57	-0.560018
25	0xbdbaf2fd	-0.091283776
26	0xbe9cf7e3	-0.30657873
27	0xbe043395	-0.12910302
28	0xbe10e00c	-0.14147967
29	0xbe512e94	-0.20427924
30	0xbe5d6f9e	-0.2162461
31	0xbd2a026e	-0.041506223

context_transformer_0/ffn_layer_0/norm/mul;context_transformer_0/ffn_layer_0/norm/add;context_transformer_0/ffn_layer_1/intermediate_dense/einsum/Einsum;context_transformer_0/ffn_layer_1/intermediate_dense/Relu;context_transformer_0/ffn_layer_1/intermediate_dense/add f4 [32, 32]
0	0xbd21cab3	-0.03949995
1	0x3e455acd	0.19272919
2	0xbdcb757e	-0.09934519
3	0xbe3600cd	-0.17773743
4	0x3e7767b2	0.2416065
5	0xbe3f3983	-0.18674283
6	0x3e5e6271	0.2171724
7	0xbe7055bf	-0.2347021
8	0x3d9ae1dc	0.075626105
9	0x3d8c21ed	0.06842408
10	0x3d8f2110	0.06988728
11	0x3d584edd	0.052809585
12	0x3e914b3a	0.28377706
13	0x3db66a90	0.08907044
14	0xbc9b82db	-0.018983295
15	0xbd9091c0	-0.070590496
16	0x3e069adb	0.1314501
17	0xbe4fb228	-0.20282805
18	0x3db8a6f2	0.09016217
19	0x3d9e05cb	0.07715949
20	0xbdf243d7	-0.11829346
21	0x3e79268a	0.24331108
22	0xbe57abf5	-0.2106169
23	0x3b7c8955	0.0038534005
24	0x3e46eeea	0.19427076
25	0x3e210e13	0.15728025
26	0x3df50f0e	0.11965762
27	0x3e765706	0.24056634
28	0x3e348381	0.1762829
29	0x3d9a79e5	0.07542781
30	0xbd82e910	-0.063921094
31	0xbe18c1d6	-0.14917693
32	0x3dedf60a	0.11619194
33	0xbc9af48f	-0.018915443
34	0xbdd2fa5a	-0.10301657
35	0xbe20d25c	-0.15705246
36	0x3d2b63f3	0.041843366
37	0x3da7127c	0.081578225
38	0x3e465eca	0.19372097
39	0x3e84f557	0.2596843
40	0x3cf529d3	0.02992717
41	0x3ecde12a	0.4021085
42	0x3d9ae2cf	0.075627916
43	0xbe4eb82e	-0.20187446
44	0xbe88b372	-0.26699406
45	0x3d06e2f5	0.032931287
46	0x3e578109	0.21045317
47	0xbdd33002	-0.10311891
48	0x3da5b53b	0.080912076
49	0x3e14a754	0.14516956
50	0xbe94318b	-0.28944048
51	0xbd90c59c	-0.07068941
52	0xbe51c45d	-0.20485063
53	0xbe028b15	-0.12748368
54	0x3d261df6	0.040555917
55	0xbe71dfe4	-0.23620564
56	0x3dc99793	0.098433636
57	0xbd921f4b	-0.07134875
58	0xbda71282	-0.08157827
59	0xbb22f017	-0.0024862343
60	0x3e29b67a	0.16573516
61	0x3e85d824	0.26141465
62	0xbd137825	-0.03600325
63	0xbd9b7331	-0.075903304
64	0x3e061125	0.13092478
65	0xbd363c30	-0.044490993
66	0x3d810865	0.06300429
67	0xbc8669d5	-0.016407887
68	0x3e1ccff0	0.15313697
69	0x3dfaf80c	0.122543424
70	0x3d9db433	0.07700386
71	0xbe47243e	-0.19447419
72	0xbd836022	-0.0641482
73	0x3e71ddf7	0.23619829
74	0xbd94c891	-0.072648175
75	0xbe03d0c9	-0.12872614
76	0x3e24bb1e	0.16087005
77	0x3d51c10c	0.051209494
78	0xbda811fb	-0.082065545
79	0xbdca8c67	-0.09890061
80	0x3e77d19b	0.24201052
81	0xbe05112d	-0.12994833
82	0xbd61fefe	-0.05517482
83	0x3daab73a	0.08335729
84	0xbe44f235	-0.1923302
85	0x3e272846	0.16323957
86	0xbdbeb0e1	-0.09311081
87	0x3e176902	0.14786151
88	0xbe2c294e	-0.16812631
89	0x3db66566	0.08906059
90	0xbda716a2	-0.08158614
91	0xbd454c06	-0.048168205
92	0xbd325e9c	-0.043547258
93	0x3cc3d516	0.023905318
94	0x3cf3de20	0.029769003
95	0xbae69cf1	-0.001759438
96	0x3d8d6939	0.06904835
97	0x3e32e10f	0.17468666
98	0xbad49503	-0.0016218725
99	0x3da7d06d	0.08194051
100	0xbe8a7fa4	-0.27050507
101	0xbdf3676a	-0.11884959
102	0xbb9d7d79	-0.0048062173
103	0xbe2ffb7f	-0.17185782
104	0x3ce28713	0.027652299
105	0xbc4ade0d	-0.012382043
106	0xbe0ec6fc	-0.13943094
107	0x3e7cb3e7	0.24678002
108	0x3d999a17	0.075000934
109	0xbdb4a2ec	-0.088201374
110	0x3b71bdf2	0.0036886898
111	0x3e860d66	0.26182097
112	0x3e0bbf3b	0.13647167
113	0xbef7309f	-0.48279282
114	0x3ccd1b69	0.025037484
115	0x3c48eb8c	0.01226319
116	0xbb86dbf3	-0.0041155755
117	0x3df2112a	0.1181968
118	0xbdc7bd40	-0.097528934
119	0xbd6b3211	-0.057420794
120	0xbd045188	-0.032304317
121	0xbdd0dcba	-0.1019835
122	0x3e805486	0.25064486
123	0x3c0af08c	0.008480202
124	0xbdca1ac1	-0.09868384
125	0xbe0c9f3e	-0.13732621
126	0xbd66fdc9	-0.056394372
127	0x3e51dad7	0.20493637
128	0xbbcc117c	-0.0062276702
129	0xbe0baf71	-0.13641144
130	0x3cb2b680	0.021815538
131	0xbe29de7f	-0.16588782
132	0x3e3182ec	0.17335099
133	0xbe03d936	-0.12875828
134	0x3e26a929	0.16275467
135	0xbdd7ec7f	-0.10543155
136	0xba967d12	-0.0011481366
137	0xbe6956a6	-0.2278696
138	0xbd63cf4f	-0.055617627
139	0xbe923e9c	-0.28563392
140	0xbe4f9e40	-0.20275211
141	0x3d0dadce	0.03458958
142	0x3e0f2696	0.13979563
143	0xbde00cc5	-0.109399356
144	0xbd4bf2ed	-0.04979222
145	0xbe92bb29	-0.28658417
146	0xbea30c34	-0.31845248
147	0xbe26439b	-0.16236727
148	0x3e7461ae	0.23865387
149	0xbc818e08	-0.015814796
150	0xbd18a19e	-0.037263505
151	0xbdbfd9ad	-0.0936769
152	0xbd5c97b8	-0.053855628
153	0x3cc3a1c4	0.023880847
154	0x3d4dfb64	0.050288573
155	0xbc6ba60c	-0.01438285
156	0x3e19d467	0.15022431
157	0x3e2c907f	0.16851996
158	0x3dd08569	0.10181696
159	0xbe34c036	-0.17651448
160	0xbd5f567d	-0.05452584
161	0x3d803e1f	0.06261849
162	0xbe3eaced	-0.18620653
163	0x3da6b3d2	0.08139767
164	0x3d3d5084	0.046219364
165	0xbe0ca917	-0.13736378
166	0x3e3b200d	0.18273945
167	0x3e5adca8	0.21373236
168	0xbe2a516a	-0.1663262
169	0x3de02da3	0.109462045
170	0x3d869652	0.0657164
171	0x3c880d5d	0.016607935
172	0x3d93f20d	0.07223902
173	0xbe209656	-0.15682349
174	0xbda709fd	-0.08156202
175	0xbd9b9e7a	-0.075985864
176	0xbe3a2d82	-0.18181422
177	0xbde798b7	-0.11308425
178	0x3dfbedad	0.123011924
179	0xbd20c0fb	-0.03924654
180	0x3e5b8376	0.21436867
181	0xbe999231	-0.29994348
182	0xbcf0e11b	-0.029404214
183	0xbe01da66	-0.12680969
184	0xbe912f57	-0.2835643
185	0x3d52687a	0.051369168
186	0xbba0bf9d	-0.0049056546
187	0x3dddb0e2	0.10824753
188	0xbe6b1aaa	-0.2295939
189	0xbe67f2c5	-0.22651203
190	0x3d59a6f8	0.05313775
191	0x3e53a7a7	0.20669423
192	0xbd98aa36	-0.0745434
193	0x3dd07552	0.10178627
194	0xbddf4c33	-0.10903206
195	0xbe3b7104	-0.18304831
196	0x3d88a712	0.06672491
197	0x3e357958	0.1772207
198	0xbdb7066f	-0.08936774
199	0xbd9e6113	-0.07733359
200	0x3d6b9c1f	0.057521936
201	0x3d1c236e	0.038119726
202	0xbd76c9f2	-0.060251184
203	0xbe499302	-0.19684985
204	0x3e6ecf4a	0.23321262
205	0x3dc27062	0.094940916
206	0x3d09a652	0.03360588
207	0x3e9b58c2	0.30341154
208	0x3e149cb7	0.14512907
209	0x3b3f9151	0.0029230902
210	0xbe31b1bb	-0.17352955
211	0x3e3c9c00	0.18418884
212	0xbdd8e96a	-0.10591395
213	0xbd9a2716	-0.07526986
214	0x3cace133	0.021103477
215	0x3d62f946	0.055413507
216	0x3e97ce39	0.29649523
217	0x3e00df77	0.12585245
218	0x3e3c6273	0.1839693
219	0x3e463560	0.19356298
220	0x3ee44c88	0.4458964
221	0xbe2a15e1	-0.16609909
222	0x3ea156f3	0.3151165
223	0xbda92e2b	-0.08260759
224	0x3dd0f9f3	0.10203924
225	0x3b2c8e4a	0.0026329928
226	0x3d18f846	0.037346147
227	0xbea455a9	-0.32096604
228	0xbe1b3bc2	-0.15159515
229	0xbd626d69	-0.055280123
230	0x3d970130	0.073732734
231	0x3e238bf6	0.1597136
232	0xbdf85460	-0.12125468
233	0x3c640dea	0.013919333
234	0x3c805f99	0.015670585
235	0xbe50003d	-0.20312591
236	0x3c6d6870	0.014490232
237	0x3c4bfef0	0.012450919
238	0xbd39adc4	-0.04533173
239	0xbccc53ea	-0.024942357
240	0xbeb13b81	-0.3461571
241	0xbd86ee20	-0.065883875
242	0x3ddd9096	0.10818593
243	0x3e56f0ba	0.20990267
244	0x3d678cde	0.056530826
245	0x3cf9e486	0.030504476
246	0xbd22851f	-0.039677735
247	0xbe22f316	-0.15913042
248	0xbedf19e9	-0.43574455
249	0xbcd2a721	-0.025714459
250	0x3bd44829	0.0064783287
251	0xbd3ce1f0	-0.04611391
252	0xbeb92af2	-0.36165577
253	0x3d559e97	0.052153196
254	0xbe3fd491	-0.18733431
255	0x3e4e7c3b	0.20164578

context_transformer_0/ffn_layer_2/intermediate_dense/einsum/Einsum;context_transformer_0/ffn_layer_2/intermediate_dense/Relu;context_transformer_0/ffn_layer_2/intermediate_dense/add f4 [32]
0	0xbe9a35fb	-0.3011931
1	0xbdeebacc	-0.116567224
2	0xbec74388	-0.3891871
3	0xbe0c1214	-0.13678771
4	0xbce0bff7	-0.027435286
5	0x3e44f950	0.1923573
6	0xbe594c48	-0.21220505
7	0xbe2abb59	-0.1667303
8	0xbe95a9b0	-0.29231024
9	0xbdadb740	-0.08482218
10	0xbed316ff	-0.41228482
11	0xbe0a31e9	-0.13495602
12	0x3cfbec0a	0.0307522
13	0xbbfd4998	-0.0077297203
14	0xbe5d72fa	-0.21625891
15	0xbe772350	-0.24134564
16	0xbe5ca204	-0.21546179
17	0xbe6ad016	-0.22930941
18	0xbdf5c41a	-0.12000294
19	0xbe2a0745	-0.16604336
20	0xbd8cfccf	-0.06884157
21	0xbebeeddc	-0.37290847
22	0xbec7119e	-0.38880628
23	0xbf0421bf	-0.5161399
24	0xbe0161c7	-0.12634955
25	0x3d9e0356	0.0771548
26	0xbdae6b4c	-0.08516559
27	0xbe86ff71	-0.2636676
28	0x3e8dc6e1	0.27690795
29	0xbdf95938	-0.1217522
30	0xbe0dfcf6	-0.13866028
31	0x3cff5dab	0.031172594

context_transformer_0/ffn_layer_1/norm/mul;context_transformer_0/ffn_layer_1/norm/add;context_transformer_0/ffn_layer_2/intermediate_dense/einsum/Einsum;context_transformer_0/ffn_layer_2/intermediate_dense/Relu;context_transformer_0/ffn_layer_2/intermediate_dense/add f4 [32, 32]
0	0xbe8a7a46	-0.27046412
1	0x3c9a4805	0.01883317
2	0xbe01313c	-0.12616438
3	0xbe2842b4	-0.16431695
4	0x3b122c05	0.002230407
5	0xbde0fbc6	-0.10985522
6	0xbd086d8d	-0.0333076
7	0xbe2621a9	-0.16223778
8	0xbcbf595f	-0.023358045
9	0x3e12c111	0.14331461
10	0x3d6f1f64	0.058379546
11	0x3dca6a18	0.09883517
12	0xbd1ba0f2	-0.037995286
13	0x3dc94a47	0.098286204
14	0xbd58c5db	-0.052923065
15	0xbdb3d2a6	-0.087804124
16	0x3c2c3aed	0.010512096
17	0xbc684bab	-0.014178197
18	0xbd02b9a4	-0.031915322
19	0xbdfe3c86	-0.12413888
20	0xbc80bc72	-0.015714858
21	0xbe1de780	-0.15420341
22	0xbe0a50ec	-0.13507432
23	0xbde4fc34	-0.111809164
24	0x3cef7b01	0.029233458
25	0xbec1e98f	-0.37873504
26	0x3cde08b2	0.027103756
27	0x3e5b1b20	0.21397066
28	0x3d571fde	0.052520625
29	0xbdaa321f	-0.08310341
30	0x3cc51e2a	0.024062235
31	0xbd1e0a55	-0.038584072
32	0x3c8cffcb	0.017211815
33	0x3e1ba139	0.1519822
34	0x3dcda1c1	0.10040618
35	0x3d792e9d	0.06083547
36	0xbe65dd37	-0.22447668
37	0xbe06d2fc	-0.13166422
38	0x3e7824c9	0.24232782
39	0xbdce646c	-0.10077748
40	0x3e8e6355	0.2781016
41	0xbd1d02fa	-0.038332917
42	0xbd5be7d4	-0.053687885
43	0xbe1ff938	-0.15622413
44	0x3e020295	0.12696297
45	0x3d00232b	0.03128354
46	0xbda3048e	-0.07959853
47	0xbcd46c6d	-0.025930608
48	0xbd047432	-0.032337375
49	0x3d4a4990	0.04938656
50	0x3e290765	0.16506727
51	0xbdda16e6	-0.10648899
52	0xbd27dd61	-0.040982608
53	0x3c9651bd	0.018349523
54	0xbdc3b973	-0.09556856
55	0xbdb2781e	-0.08714317
56	0xbe6fceb1	-0.2341869
57	0xbe1eb03b	-0.15496914
58	0x3e65a278	0.22425258
59	0xbe5cc18c	-0.21558207
60	0x3e4f11a2	0.2022157
61	0x3cbd47f0	0.023105592
62	0xbdc2abee	-0.09505449
63	0xbe8d1f37	-0.27562878
64	0x3d9255c3	0.07145264
65	0x3e7fe42e	0.24989387
66	0xbe54b95c	-0.20773834
67	0xbcb3ebc6	-0.021963011
68	0x3e0f934f	0.14021038
69	0x3e9d2757	0.30694076
70	0x3dff289c	0.124589175
71	0x3d4558fb	0.04818056
72	0x3e878b1c	0.2647332
73	0x3df9b63b	0.12192961
74	0x3ddf8c7f	0.109154694
75	0xbeaa6e41	-0.33287242
76	0x3a73d46a	0.00093013665
77	0xbda202d6	-0.07910697
78	0xbc4dc0a4	-0.012558136
79	0xbd610b30	-0.05494231
80	0x3cf94c85	0.030431995
81	0xbd972d3c	-0.07381675
82	0x3da03d88	0.07824236
83	0xbd6b7db4	-0.057492927
84	0xbd0f835b	-0.03503738
85	0x3c836de9	0.01604362
86	0xbf13ff25	-0.57811195
87	0xbc3598ea	-0.011083821
88	0x3e24ae9c	0.16082233
89	0x3daf1632	0.08549155
90	0x3e4cce51	0.20000578
91	0xbcf4085a	-0.029789139
92	0xbad01de5	-0.001587805
93	0xbd9f6590	-0.077830434
94	0xbe72f8c9	-0.23727717
95	0x3e3980f7	0.18115602
96	0x3de0d156	0.10977428
97	0x3e305446	0.17219648
98	0x3d2410cb	0.040055078
99	0x3d7ad9b7	0.061242785
100	0x3b86c14d	0.0041123987
101	0x3cc080c2	0.023498897
102	0x3be4b995	0.006980131
103	0x3e802468	0.25027776
104	0x3e21a623	0.15786032
105	0xbd23a6ed	-0.039954115
106	0x3e8eb1ab	0.27869925
107	0xbe407cd0	-0.18797612
108	0xbd2d8bbf	-0.0423696
109	0x3cba2983	0.022724872
110	0xbda64119	-0.08117885
111	0xbe451df6	-0.1924971
112	0x3d580de2	0.052747615
113	0x3d7535c7	0.05986574
114	0x3e359177	0.17731272
115	0x3ed0929c	0.40736854
116	0x3ebe9d0a	0.37229186
117	0xbe173d35	-0.14769442
118	0x3b9503ea	0.0045475857
119	0x3e0ac627	0.13552152
120	0x3d739663	0.05946959
121	0x3c06fea6	0.008239424
122	0xbe90bcbd	-0.28268996
123	0xbeb674ba	-0.3563593
124	0xbd03ec01	-0.032207493
125	0x3d61dd2c	0.055142567
126	0xbdbbf471	-0.09177483
127	0x3e037f80	0.12841606
128	0xbe38d83c	-0.18051237
129	0xbdd19daa	-0.1023515
130	0xbec1a7e2	-0.37823397
131	0xbdbb8826	-0.09156828
132	0x3d99a3ae	0.075019225
133	0x3d9039dd	0.070422865
134	0xbe00a64f	-0.12563442
135	0x3d94f3a4	0.07273033
136	0x3c15b559	0.009137475
137	0x3e8e9b0e	0.27852672
138	0x3c8841e3	0.01663298
139	0x3cba85c5	0.022768864
140	0x3db14691	0.086560376
141	0x3de7d991	0.113207944
142	0xbd9b2311	-0.07575048
143	0x3d86dbaa	0.06584866
144	0xbe25c9cb	-0.16190259
145	0x3d8636a0	0.06553388
146	0xbd279b2b	-0.040919464
147	0x3de50864	0.11183241
148	0x3ebf4613	0.3735815
149	0xbe9cae07	-0.30601522
150	0xbddd5675	-0.10807506
151	0xbe0cbdd2	-0.13744286
152	0x3e30c61c	0.17263073
153	0xbe254f65	-0.16143568
154	0x3eaf27bd	0.34210005
155	0x3e29367d	0.16524692
156	0xbe0f1ab5	-0.13975032
157	0xbba9562a	-0.0051677423
158	0xbd0bcd8d	-0.034131575
159	0xbdc9f483	-0.0986109
160	0x3e0e4c2f	0.13896249
161	0xbe25422f	-0.16138528
162	0xbd3676d4	-0.044546917
163	0xbea499dc	-0.32148635
164	0xbdc937fb	-0.098251306
165	0x3c2d8230	0.010590121
166	0x3e0db04b	0.13836782
167	0x3e8253c4	0.25454533
168	0xbd50d406	-0.05098345
169	0x3e5a39bc	0.21311086
170	0x3e483e59	0.19555034
171	0xbee506da	-0.4473179
172	0xbdf33caf	-0.11876809
173	0xbdf55d08	-0.11980635
174	0x3db5a9fc	0.088703126
175	0x3cd0a437	0.025468929
176	0x3d7075fd	0.058706272
177	0xbe057210	-0.13031793
178	0xbe3870b5	-0.18011744
179	0xbe2c34d3	-0.16817026
180	0xbe801607	-0.25016806
181	0xbe28dd53	-0.16490678
182	0xbebe3dbc	-0.37156475
183	0xbdd3f9d3	-0.103503846
184	0x3de857a6	0.113448426
185	0xbc172ca8	-0.0092269555
186	0x3c386c44	0.011256281
187	0xbda43ba0	-0.08019185
188	0x3d961614	0.0732843
189	0x3c45f760	0.012082905
190	0xbd6b012c	-0.057374164
191	0x399b1899	0.0002958223
192	0xbe1a2156	-0.15051779
193	0x3dbab528	0.09116584
194	0x3e08ce50	0.13359952
195	0xbe305518	-0.1721996
196	0xbe16dcaf	-0.14732622
197	0x3e08a8d7	0.13345657
198	0xbde59ab0	-0.11211145
199	0xbc6f1e57	-0.014594636
200	0xbdbeafa8	-0.093108475
201	0xbd52695b	-0.051370006
202	0x3d7d345f	0.061817523
203	0xbd5ef979	-0.054437134
204	0xbe109bfd	-0.14122005
205	0xbd856cb2	-0.065148726
206	0x3b9e2143	0.0048257424
207	0xbd3c599d	-0.0459839
208	0x3e0897db	0.13339178
209	0xbdad763a	-0.084698156
210	0xbe2a676e	-0.16641018
211	0xbd5f41e6	-0.054506205
212	0xbe46f371	-0.19428803
213	0x3ceefcef	0.029173343
214	0xbd23009e	-0.03979551
215	0x3d893989	0.06700427
216	0xbdeba627	-0.115063004
217	0xbe563dd2	-0.2092202
218	0xbd4c1b20	-0.049830556
219	0x3e0f1537	0.13972937
220	0xbdf984d4	-0.12183538
221	0xbdd934f8	-0.10605806
222	0x3d921e8e	0.07134734
223	0x3e872774	0.26397288
224	0x3e3eb94f	0.18625377
225	0x3d86a33c	0.06574103
226	0xbbdbb09e	-0.006704404
227	0x3eb29582	0.3487969
228	0x3d9e0007	0.07714849
229	0xbd968d20	-0.07351136
230	0xbc8308db	-0.015995434
231	0xbe153b3a	-0.14573374
232	0xbb49c6cf	-0.0030788665
233	0xbe72cb23	-0.23710303
234	0x3ddfef51	0.10934318
235	0xbdc68cb4	-0.09694806
236	0x3cd35c4c	0.025800847
237	0x3e11b402	0.14228824
238	0xbd1ac733	-0.037787627
239	0xbdb53b82	-0.08849241
240	0x3e18b7cd	0.14913864
241	0x3dd36a76	0.1032304
242	0xbddc5d8c	-0.1076003
243	0x3b08a6ac	0.0020851297
244	0xbe8b4415	-0.2720038
245	0x3d830298	0.06396979
246	0xbd4acc8e	-0.049511485
247	0xbe2bcd6d	-0.16777582
248	0xbe876329	-0.2644284
249	0xbd673178	-0.05644366
250	0x3e30b5b6	0.17256817
251	0xbd5d8239	-0.054079268
252	0x3e45be9b	0.19310991
253	0xbd82e91e	-0.0639212
254	0x3e123dc0	0.14281368
255	0x3da03ae5	0.07823733

context_transformer_0/ffn_layer_3/intermediate_dense/einsum/Einsum;context_transformer_0/ffn_layer_3/intermediate_dense/Relu;context_transformer_0/ffn_layer_3/intermediate_dense/add f4 [32]
0	0xbdf1c78b	-0.11805638
1	0xbe83e282	-0.2575875
2	0xbe397a21	-0.18112995
3	0xbe9603fc	-0.29299915
4	0xbe3de9ed	-0.18546267
5	0xbe249f19	-0.16076316
6	0xbe1d1d20	-0.15343142
7	0xbe2580ff	-0.1616249
8	0xbdb12ca3	-0.08651092
9	0xbe063aa8	-0.13108313
10	0xbe4e5760	-0.20150518
11	0xbdda3640	-0.106548786
12	0xbe75e699	-0.24013747
13	0xbd78cfc0	-0.060745
14	0xbe1cf1e6	-0.15326652
15	0xbe87851b	-0.2646874
16	0xbd74a884	-0.05973102
17	0x3c8422a2	0.016129795
18	0xbe1e20f1	-0.15442254
19	0x3d91b405	0.07114414
20	0xbde6f1a0	-0.11276555
21	0xbe0df37f	-0.13862418
22	0xbde75162	-0.112948194
23	0xbda689ac	-0.081317276
24	0xbea090b3	-0.31360397
25	0xbdeb9b88	-0.115042746
26	0xbc87f176	-0.01659463
27	0xbe023931	-0.1271713
28	0xbdab1f9d	-0.08355639
29	0xbe24b8d8	-0.16086137
30	0xbe06eaab	-0.13175456
31	0xbe5d3a3a	-0.21604243
